…
       'CD4+ T naive', 'CD8+ T', 'CD8+ T naive', 'Erythroblast',
       'G/M prog', 'HSC', 'ID2-hi myeloid prog', 'ILC', 'Lymph prog',
       'MK/E prog', 'NK', 'Naive CD20+ B', 'Normoblast', 'Plasma cell',
       'Proerythroblast', 'Transitional B', 'cDC2', 'pDC'], dtype=object), dropout=0.2, embed_hid_feats=512, epochs=1000, input_feats=256, latent_feats=64, lr_classification=0.0001, lr_embed=0.0001, lr_predict=0.0001, normalization='batch', num_class=22, num_class_layer=4, num_embed_layer=8, num_pred_layer=4, out_feats=256, patience=10, pred_hid_feats=512, random_seed=17)
net1: ContrastiveModel(
  (embed): AbsModel(
    (hid_layer): ModuleList(
      (0): Linear(in_features=256, out_features=512, bias=True)
      (1): Linear(in_features=512, out_features=512, bias=True)
      (2): Linear(in_features=512, out_features=512, bias=True)
      (3): Linear(in_features=512, out_features=512, bias=True)
      (4): Linear(in_features=512, out_features=512, bias=True)
      (5): Linear(in_features=512, out_features=512, bias=True)
      (6): Linear(in_features=512, out_features=512, bias=True)
      (7): Linear(in_features=512, out_features=64, bias=True)
    )
    (layer_acts): ModuleList(
      (0): ReLU()
      (1): ReLU()
      (2): ReLU()
      (3): ReLU()
      (4): ReLU()
      (5): ReLU()
      (6): ReLU()
      (7): ReLU()
    )
    (layer_norm): ModuleList(
      (0): BatchNorm1d(512, eps=1e-05, momentum=0.1, affine=True, track_running_stats=True)
      (1): BatchNorm1d(512, eps=1e-05, momentum=0.1, affine=True, track_running_stats=True)
      (2): BatchNorm1d(512, eps=1e-05, momentum=0.1, affine=True, track_running_stats=True)
      (3): BatchNorm1d(512, eps=1e-05, momentum=0.1, affine=True, track_running_stats=True)
      (4): BatchNorm1d(512, eps=1e-05, momentum=0.1, affine=True, track_running_stats=True)
      (5): BatchNorm1d(512, eps=1e-05, momentum=0.1, affine=True, track_running_stats=True)
      (6): BatchNorm1d(512, eps=1e-05, momentum=0.1, affine=True, track_running_stats=True)
    )
    (dropout): Dropout(p=0.2, inplace=False)
  )
  (classification): AbsModel(
    (hid_layer): ModuleList(
      (0): Linear(in_features=64, out_features=512, bias=True)
      (1): Linear(in_features=512, out_features=512, bias=True)
      (2): Linear(in_features=512, out_features=512, bias=True)
      (3): Linear(in_features=512, out_features=22, bias=True)
    )
    (layer_acts): ModuleList(
      (0): ReLU()
      (1): ReLU()
      (2): ReLU()
      (3): Softmax(dim=1)
    )
    (layer_norm): ModuleList(
      (0): BatchNorm1d(512, eps=1e-05, momentum=0.1, affine=True, track_running_stats=True)
      (1): BatchNorm1d(512, eps=1e-05, momentum=0.1, affine=True, track_running_stats=True)
      (2): BatchNorm1d(512, eps=1e-05, momentum=0.1, affine=True, track_running_stats=True)
    )
    (dropout): Dropout(p=0.2, inplace=False)
  )
  (predict): AbsModel(
    (hid_layer): ModuleList(
      (0): Linear(in_features=64, out_features=512, bias=True)
      (1): Linear(in_features=512, out_features=512, bias=True)
      (2): Linear(in_features=512, out_features=512, bias=True)
      (3): Linear(in_features=512, out_features=256, bias=True)
    )
    (layer_acts): ModuleList(
      (0): ReLU()
      (1): ReLU()
      (2): ReLU()
      (3): Sigmoid()
    )
    (layer_norm): ModuleList(
      (0): BatchNorm1d(512, eps=1e-05, momentum=0.1, affine=True, track_running_stats=True)
      (1): BatchNorm1d(512, eps=1e-05, momentum=0.1, affine=True, track_running_stats=True)
      (2): BatchNorm1d(512, eps=1e-05, momentum=0.1, affine=True, track_running_stats=True)
    )
    (dropout): Dropout(p=0.2, inplace=False)
  )
)
net2: ContrastiveModel(
  (embed): AbsModel(
    (hid_layer): ModuleList(
      (0): Linear(in_features=256, out_features=512, bias=True)
      (1): Linear(in_features=512, out_features=512, bias=True)
      (2): Linear(in_features=512, out_features=512, bias=True)
      (3): Linear(in_features=512, out_features=512, bias=True)
      (4): Linear(in_features=512, out_features=512, bias=True)
      (5): Linear(in_features=512, out_features=512, bias=True)
      (6): Linear(in_features=512, out_features=512, bias=True)
      (7): Linear(in_features=512, out_features=64, bias=True)
    )
    (layer_acts): ModuleList(
      (0): ReLU()
      (1): ReLU()
      (2): ReLU()
      (3): ReLU()
      (4): ReLU()
      (5): ReLU()
      (6): ReLU()
      (7): ReLU()
    )
    (layer_norm): ModuleList(
      (0): BatchNorm1d(512, eps=1e-05, momentum=0.1, affine=True, track_running_stats=True)
      (1): BatchNorm1d(512, eps=1e-05, momentum=0.1, affine=True, track_running_stats=True)
      (2): BatchNorm1d(512, eps=1e-05, momentum=0.1, affine=True, track_running_stats=True)
      (3): BatchNorm1d(512, eps=1e-05, momentum=0.1, affine=True, track_running_stats=True)
      (4): BatchNorm1d(512, eps=1e-05, momentum=0.1, affine=True, track_running_stats=True)
      (5): BatchNorm1d(512, eps=1e-05, momentum=0.1, affine=True, track_running_stats=True)
      (6): BatchNorm1d(512, eps=1e-05, momentum=0.1, affine=True, track_running_stats=True)
    )
    (dropout): Dropout(p=0.2, inplace=False)
  )
  (classification): AbsModel(
    (hid_layer): ModuleList(
      (0): Linear(in_features=64, out_features=512, bias=True)
      (1): Linear(in_features=512, out_features=512, bias=True)
      (2): Linear(in_features=512, out_features=512, bias=True)
      (3): Linear(in_features=512, out_features=22, bias=True)
    )
    (layer_acts): ModuleList(
      (0): ReLU()
      (1): ReLU()
      (2): ReLU()
      (3): Softmax(dim=1)
    )
    (layer_norm): ModuleList(
      (0): BatchNorm1d(512, eps=1e-05, momentum=0.1, affine=True, track_running_stats=True)
      (1): BatchNorm1d(512, eps=1e-05, momentum=0.1, affine=True, track_running_stats=True)
      (2): BatchNorm1d(512, eps=1e-05, momentum=0.1, affine=True, track_running_stats=True)
    )
    (dropout): Dropout(p=0.2, inplace=False)
  )
  (predict): AbsModel(
    (hid_layer): ModuleList(
      (0): Linear(in_features=64, out_features=512, bias=True)
      (1): Linear(in_features=512, out_features=512, bias=True)
      (2): Linear(in_features=512, out_features=512, bias=True)
      (3): Linear(in_features=512, out_features=256, bias=True)
    )
    (layer_acts): ModuleList(
      (0): ReLU()
      (1): ReLU()
      (2): ReLU()
      (3): ReLU()
    )
    (layer_norm): ModuleList(
      (0): BatchNorm1d(512, eps=1e-05, momentum=0.1, affine=True, track_running_stats=True)
      (1): BatchNorm1d(512, eps=1e-05, momentum=0.1, affine=True, track_running_stats=True)
      (2): BatchNorm1d(512, eps=1e-05, momentum=0.1, affine=True, track_running_stats=True)
    )
    (dropout): Dropout(p=0.2, inplace=False)
  )
)
epoch:  0
training loss: 2.6853280411212492
validation loss: 2.444245149612427
validation acc: 0.7423529411764705
classification report: 
                     precision    recall  f1-score   support

               B1 B       1.00      0.00      0.00        96
         CD14+ Mono       0.81      0.99      0.89       830
…
