…
       'Plasmablast IGKC+', 'Plasmablast IGKC-', 'Proerythroblast',
       'Reticulocyte', 'T prog cycling', 'T reg', 'Transitional B',
       'cDC1', 'cDC2', 'dnT', 'gdT CD158b+', 'gdT TCRVD2+', 'pDC'],
      dtype=object), dropout=0.2, embed_hid_feats=512, epochs=1000, input_feats=256, latent_feats=64, lr_classification=0.0001, lr_embed=0.0001, lr_predict=0.0001, normalization='batch', num_class=45, num_class_layer=6, num_embed_layer=8, num_pred_layer=6, out_feats=134, patience=10, pred_hid_feats=512, random_seed=17)
net1: ContrastiveModel(
  (embed): AbsModel(
    (hid_layer): ModuleList(
      (0): Linear(in_features=134, out_features=256, bias=True)
      (1): Linear(in_features=256, out_features=256, bias=True)
      (2): Linear(in_features=256, out_features=256, bias=True)
      (3): Linear(in_features=256, out_features=256, bias=True)
      (4): Linear(in_features=256, out_features=256, bias=True)
      (5): Linear(in_features=256, out_features=256, bias=True)
      (6): Linear(in_features=256, out_features=256, bias=True)
      (7): Linear(in_features=256, out_features=64, bias=True)
    )
    (layer_acts): ModuleList(
      (0): ReLU()
      (1): ReLU()
      (2): ReLU()
      (3): ReLU()
      (4): ReLU()
      (5): ReLU()
      (6): ReLU()
      (7): ReLU()
    )
    (layer_norm): ModuleList(
      (0): BatchNorm1d(256, eps=1e-05, momentum=0.1, affine=True, track_running_stats=True)
      (1): BatchNorm1d(256, eps=1e-05, momentum=0.1, affine=True, track_running_stats=True)
      (2): BatchNorm1d(256, eps=1e-05, momentum=0.1, affine=True, track_running_stats=True)
      (3): BatchNorm1d(256, eps=1e-05, momentum=0.1, affine=True, track_running_stats=True)
      (4): BatchNorm1d(256, eps=1e-05, momentum=0.1, affine=True, track_running_stats=True)
      (5): BatchNorm1d(256, eps=1e-05, momentum=0.1, affine=True, track_running_stats=True)
      (6): BatchNorm1d(256, eps=1e-05, momentum=0.1, affine=True, track_running_stats=True)
    )
    (dropout): Dropout(p=0.2, inplace=False)
  )
  (classification): AbsModel(
    (hid_layer): ModuleList(
      (0): Linear(in_features=64, out_features=256, bias=True)
      (1): Linear(in_features=256, out_features=256, bias=True)
      (2): Linear(in_features=256, out_features=256, bias=True)
      (3): Linear(in_features=256, out_features=256, bias=True)
      (4): Linear(in_features=256, out_features=256, bias=True)
      (5): Linear(in_features=256, out_features=45, bias=True)
    )
    (layer_acts): ModuleList(
      (0): ReLU()
      (1): ReLU()
      (2): ReLU()
      (3): ReLU()
      (4): ReLU()
      (5): Softmax(dim=1)
    )
    (layer_norm): ModuleList(
      (0): BatchNorm1d(256, eps=1e-05, momentum=0.1, affine=True, track_running_stats=True)
      (1): BatchNorm1d(256, eps=1e-05, momentum=0.1, affine=True, track_running_stats=True)
      (2): BatchNorm1d(256, eps=1e-05, momentum=0.1, affine=True, track_running_stats=True)
      (3): BatchNorm1d(256, eps=1e-05, momentum=0.1, affine=True, track_running_stats=True)
      (4): BatchNorm1d(256, eps=1e-05, momentum=0.1, affine=True, track_running_stats=True)
    )
    (dropout): Dropout(p=0.2, inplace=False)
  )
  (predict): AbsModel(
    (hid_layer): ModuleList(
      (0): Linear(in_features=64, out_features=256, bias=True)
      (1): Linear(in_features=256, out_features=256, bias=True)
      (2): Linear(in_features=256, out_features=256, bias=True)
      (3): Linear(in_features=256, out_features=256, bias=True)
      (4): Linear(in_features=256, out_features=256, bias=True)
      (5): Linear(in_features=256, out_features=256, bias=True)
    )
    (layer_acts): ModuleList(
      (0): ReLU()
      (1): ReLU()
      (2): ReLU()
      (3): ReLU()
      (4): ReLU()
      (5): Sigmoid()
    )
    (layer_norm): ModuleList(
      (0): BatchNorm1d(256, eps=1e-05, momentum=0.1, affine=True, track_running_stats=True)
      (1): BatchNorm1d(256, eps=1e-05, momentum=0.1, affine=True, track_running_stats=True)
      (2): BatchNorm1d(256, eps=1e-05, momentum=0.1, affine=True, track_running_stats=True)
      (3): BatchNorm1d(256, eps=1e-05, momentum=0.1, affine=True, track_running_stats=True)
      (4): BatchNorm1d(256, eps=1e-05, momentum=0.1, affine=True, track_running_stats=True)
    )
    (dropout): Dropout(p=0.2, inplace=False)
  )
)
net2: ContrastiveModel(
  (embed): AbsModel(
    (hid_layer): ModuleList(
      (0): Linear(in_features=256, out_features=512, bias=True)
      (1): Linear(in_features=512, out_features=512, bias=True)
      (2): Linear(in_features=512, out_features=512, bias=True)
      (3): Linear(in_features=512, out_features=512, bias=True)
      (4): Linear(in_features=512, out_features=512, bias=True)
      (5): Linear(in_features=512, out_features=512, bias=True)
      (6): Linear(in_features=512, out_features=512, bias=True)
      (7): Linear(in_features=512, out_features=64, bias=True)
    )
    (layer_acts): ModuleList(
      (0): ReLU()
      (1): ReLU()
      (2): ReLU()
      (3): ReLU()
      (4): ReLU()
      (5): ReLU()
      (6): ReLU()
      (7): ReLU()
    )
    (layer_norm): ModuleList(
      (0): BatchNorm1d(512, eps=1e-05, momentum=0.1, affine=True, track_running_stats=True)
      (1): BatchNorm1d(512, eps=1e-05, momentum=0.1, affine=True, track_running_stats=True)
      (2): BatchNorm1d(512, eps=1e-05, momentum=0.1, affine=True, track_running_stats=True)
      (3): BatchNorm1d(512, eps=1e-05, momentum=0.1, affine=True, track_running_stats=True)
      (4): BatchNorm1d(512, eps=1e-05, momentum=0.1, affine=True, track_running_stats=True)
      (5): BatchNorm1d(512, eps=1e-05, momentum=0.1, affine=True, track_running_stats=True)
      (6): BatchNorm1d(512, eps=1e-05, momentum=0.1, affine=True, track_running_stats=True)
    )
    (dropout): Dropout(p=0.2, inplace=False)
  )
  (classification): AbsModel(
    (hid_layer): ModuleList(
      (0): Linear(in_features=64, out_features=512, bias=True)
      (1): Linear(in_features=512, out_features=512, bias=True)
      (2): Linear(in_features=512, out_features=512, bias=True)
      (3): Linear(in_features=512, out_features=512, bias=True)
      (4): Linear(in_features=512, out_features=512, bias=True)
      (5): Linear(in_features=512, out_features=45, bias=True)
    )
    (layer_acts): ModuleList(
      (0): ReLU()
      (1): ReLU()
      (2): ReLU()
      (3): ReLU()
      (4): ReLU()
      (5): Softmax(dim=1)
    )
    (layer_norm): ModuleList(
      (0): BatchNorm1d(512, eps=1e-05, momentum=0.1, affine=True, track_running_stats=True)
      (1): BatchNorm1d(512, eps=1e-05, momentum=0.1, affine=True, track_running_stats=True)
      (2): BatchNorm1d(512, eps=1e-05, momentum=0.1, affine=True, track_running_stats=True)
      (3): BatchNorm1d(512, eps=1e-05, momentum=0.1, affine=True, track_running_stats=True)
      (4): BatchNorm1d(512, eps=1e-05, momentum=0.1, affine=True, track_running_stats=True)
    )
    (dropout): Dropout(p=0.2, inplace=False)
  )
  (predict): AbsModel(
    (hid_layer): ModuleList(
      (0): Linear(in_features=64, out_features=512, bias=True)
      (1): Linear(in_features=512, out_features=512, bias=True)
      (2): Linear(in_features=512, out_features=512, bias=True)
      (3): Linear(in_features=512, out_features=512, bias=True)
      (4): Linear(in_features=512, out_features=512, bias=True)
      (5): Linear(in_features=512, out_features=134, bias=True)
    )
    (layer_acts): ModuleList(
      (0): ReLU()
      (1): ReLU()
      (2): ReLU()
      (3): ReLU()
      (4): ReLU()
      (5): ReLU()
    )
    (layer_norm): ModuleList(
      (0): BatchNorm1d(512, eps=1e-05, momentum=0.1, affine=True, track_running_stats=True)
      (1): BatchNorm1d(512, eps=1e-05, momentum=0.1, affine=True, track_running_stats=True)
      (2): BatchNorm1d(512, eps=1e-05, momentum=0.1, affine=True, track_running_stats=True)
      (3): BatchNorm1d(512, eps=1e-05, momentum=0.1, affine=True, track_running_stats=True)
      (4): BatchNorm1d(512, eps=1e-05, momentum=0.1, affine=True, track_running_stats=True)
    )
    (dropout): Dropout(p=0.2, inplace=False)
  )
)
epoch:  0
training loss: 3.4830562718310056
validation loss: 3.2059027072200967
validation acc: 0.6479298881837413
classification report: 
                                  precision    recall  f1-score   support

                      B1 B IGKC+       1.00      0.00      0.00        54
…
