…
      (2): GraphConv(in=100, out=100, normalization=both, activation=None)
      (3): GraphConv(in=100, out=100, normalization=both, activation=None)
      (4): GraphConv(in=100, out=100, normalization=both, activation=None)
      (5): GraphConv(in=100, out=100, normalization=both, activation=None)
      (6): GraphConv(in=100, out=100, normalization=both, activation=None)
    )
    (gcn_acts): ModuleList(
      (0): ReLU()
      (1): ReLU()
      (2): ReLU()
      (3): ReLU()
      (4): ReLU()
      (5): ReLU()
      (6): ReLU()
    )
    (gcn_norm): ModuleList()
  )
  (hid_encoder): HiddenEncoder(
    (hid_encoder): ModuleList(
      (0): Linear(in_features=100, out_features=100, bias=True)
      (1): Linear(in_features=100, out_features=100, bias=True)
      (2): Linear(in_features=100, out_features=100, bias=True)
      (3): Linear(in_features=100, out_features=100, bias=True)
      (4): Linear(in_features=100, out_features=100, bias=True)
      (5): Linear(in_features=100, out_features=100, bias=True)
      (6): Linear(in_features=100, out_features=20, bias=True)
    )
    (encoder_acts): ModuleList(
      (0): ReLU()
      (1): ReLU()
      (2): ReLU()
      (3): ReLU()
      (4): ReLU()
      (5): ReLU()
      (6): ReLU()
    )
    (encoder_norm): ModuleList(
      (0): BatchNorm1d(100, eps=1e-05, momentum=0.1, affine=True, track_running_stats=True)
      (1): BatchNorm1d(100, eps=1e-05, momentum=0.1, affine=True, track_running_stats=True)
      (2): BatchNorm1d(100, eps=1e-05, momentum=0.1, affine=True, track_running_stats=True)
      (3): BatchNorm1d(100, eps=1e-05, momentum=0.1, affine=True, track_running_stats=True)
      (4): BatchNorm1d(100, eps=1e-05, momentum=0.1, affine=True, track_running_stats=True)
      (5): BatchNorm1d(100, eps=1e-05, momentum=0.1, affine=True, track_running_stats=True)
      (6): BatchNorm1d(20, eps=1e-05, momentum=0.1, affine=True, track_running_stats=True)
    )
  )
  (hid_decoder): HiddenDecoder(
    (hid_decoder): ModuleList(
      (0): Linear(in_features=20, out_features=100, bias=True)
      (1): Linear(in_features=100, out_features=100, bias=True)
      (2): Linear(in_features=100, out_features=100, bias=True)
      (3): Linear(in_features=100, out_features=100, bias=True)
      (4): Linear(in_features=100, out_features=100, bias=True)
      (5): Linear(in_features=100, out_features=100, bias=True)
      (6): Linear(in_features=100, out_features=100, bias=True)
    )
    (decoder_acts): ModuleList(
      (0): ReLU()
      (1): ReLU()
      (2): ReLU()
      (3): ReLU()
      (4): ReLU()
      (5): ReLU()
      (6): ReLU()
    )
    (decoder_norm): ModuleList(
      (0): BatchNorm1d(100, eps=1e-05, momentum=0.1, affine=True, track_running_stats=True)
      (1): BatchNorm1d(100, eps=1e-05, momentum=0.1, affine=True, track_running_stats=True)
      (2): BatchNorm1d(100, eps=1e-05, momentum=0.1, affine=True, track_running_stats=True)
      (3): BatchNorm1d(100, eps=1e-05, momentum=0.1, affine=True, track_running_stats=True)
      (4): BatchNorm1d(100, eps=1e-05, momentum=0.1, affine=True, track_running_stats=True)
      (5): BatchNorm1d(100, eps=1e-05, momentum=0.1, affine=True, track_running_stats=True)
      (6): BatchNorm1d(100, eps=1e-05, momentum=0.1, affine=True, track_running_stats=True)
    )
  )
  (mod1_decoder): ModalityDecoder(
    (mod_decoder): ModuleList(
      (0): Linear(in_features=100, out_features=100, bias=True)
      (1): Linear(in_features=100, out_features=100, bias=True)
      (2): Linear(in_features=100, out_features=100, bias=True)
      (3): Linear(in_features=100, out_features=100, bias=True)
      (4): Linear(in_features=100, out_features=100, bias=True)
      (5): Linear(in_features=100, out_features=100, bias=True)
      (6): Linear(in_features=100, out_features=100, bias=True)
    )
    (mod_acts): ModuleList(
      (0): ReLU()
      (1): ReLU()
      (2): ReLU()
      (3): ReLU()
      (4): ReLU()
      (5): ReLU()
      (6): ReLU()
    )
    (mod_norm): ModuleList(
      (0): BatchNorm1d(100, eps=1e-05, momentum=0.1, affine=True, track_running_stats=True)
      (1): BatchNorm1d(100, eps=1e-05, momentum=0.1, affine=True, track_running_stats=True)
      (2): BatchNorm1d(100, eps=1e-05, momentum=0.1, affine=True, track_running_stats=True)
      (3): BatchNorm1d(100, eps=1e-05, momentum=0.1, affine=True, track_running_stats=True)
      (4): BatchNorm1d(100, eps=1e-05, momentum=0.1, affine=True, track_running_stats=True)
      (5): BatchNorm1d(100, eps=1e-05, momentum=0.1, affine=True, track_running_stats=True)
      (6): BatchNorm1d(100, eps=1e-05, momentum=0.1, affine=True, track_running_stats=True)
    )
  )
  (mod2_decoder): ModalityDecoder(
    (mod_decoder): ModuleList(
      (0): Linear(in_features=100, out_features=100, bias=True)
      (1): Linear(in_features=100, out_features=100, bias=True)
      (2): Linear(in_features=100, out_features=100, bias=True)
      (3): Linear(in_features=100, out_features=100, bias=True)
      (4): Linear(in_features=100, out_features=100, bias=True)
      (5): Linear(in_features=100, out_features=100, bias=True)
      (6): Linear(in_features=100, out_features=100, bias=True)
    )
    (mod_acts): ModuleList(
      (0): ReLU()
      (1): ReLU()
      (2): ReLU()
      (3): ReLU()
      (4): ReLU()
      (5): ReLU()
      (6): ReLU()
    )
    (mod_norm): ModuleList(
      (0): BatchNorm1d(100, eps=1e-05, momentum=0.1, affine=True, track_running_stats=True)
      (1): BatchNorm1d(100, eps=1e-05, momentum=0.1, affine=True, track_running_stats=True)
      (2): BatchNorm1d(100, eps=1e-05, momentum=0.1, affine=True, track_running_stats=True)
      (3): BatchNorm1d(100, eps=1e-05, momentum=0.1, affine=True, track_running_stats=True)
      (4): BatchNorm1d(100, eps=1e-05, momentum=0.1, affine=True, track_running_stats=True)
      (5): BatchNorm1d(100, eps=1e-05, momentum=0.1, affine=True, track_running_stats=True)
      (6): BatchNorm1d(100, eps=1e-05, momentum=0.1, affine=True, track_running_stats=True)
    )
  )
)
epoch:  0
training loss 1:  1.5912870168685913
training loss 2:  39968240.0
validation loss 1:  1.4414862394332886
validation loss 2:  39888892.0
rmse ADT to GEX:  7.147247314453125
rmse GEX to ADT:  4740.69970703125
epoch:  1
training loss 1:  1.4212688207626343
training loss 2:  39966080.0
validation loss 1:  1.4682674407958984
…
